…
+-----------------------------------------------------------------------------+
tanmay@pragyan:/DATA/NLP/khadga_19024$ tail -f -n 10 results_nlpdl.txt
Loading Data
Doing preprocess
Total Vocabulary Size (Untrimmed): 183987
Vocabulary Size (trimmed): 5000
x_train.shape (808661, 200)
Shape of label tensor: (808661, 2)
(646928, 200) (646928, 2)
(161733, 200) (161733, 2)
Model: "model"
_________________________________________________________________
 Layer (type)                Output Shape              Param #
=================================================================
 input_1 (InputLayer)        [(None, 200)]             0

 token_and_position_embeddin  (None, 200, 200)         1040000
 g (TokenAndPositionEmbeddin
 g)

 transformer_block (Transfor  (None, 200, 200)         1954064
 merBlock)

 global_average_pooling1d (G  (None, 200)              0
 lobalAveragePooling1D)

 dropout_2 (Dropout)         (None, 200)               0

 dense_2 (Dense)             (None, 128)               25728

 dense_3 (Dense)             (None, 2)                 258

=================================================================
Total params: 3,020,050
Trainable params: 3,020,050
Non-trainable params: 0
_________________________________________________________________
Epoch 1/100
1559/4549 [=========>....................] - ETA: 3:06 - loss: 0.6943 - accuracy: 0.5006 - precision: 0.5006 - recall: 0.5006 - get_f1: 0.5006^C
tanmay@pragyan:/DATA/NLP/khadga_19024$ nvidia-smi
…
4549/4549 [==============================] - 280s 62ms/step - loss: 0.5766 - accuracy: 0.6903 - precision: 0.6903 - recall: 0.6903 - get_f1: 0.6903 - val_loss: 0.6129 - val_accuracy: 0.6646 - val_precision: 0.6646 - val_recall: 0.6646 - val_get_f1: 0.6646
Epoch 6: early stopping
316/316 [==============================] - 20s 62ms/step - loss: 0.6116 - accuracy: 0.6646 - precision: 0.6646 - recall: 0.6646 - get_f1: 0.6646
Valid set Transformer MODEL
  Loss: 0.612
  Accuracy: 0.665
1580/1580 [==============================] - 88s 54ms/step
[0 1 0 0 1 0 1 1 1 1]
----- END ----
Model: "sequential_1"
_________________________________________________________________
 Layer (type)                Output Shape              Param #
=================================================================
 embedding_2 (Embedding)     (None, 200, 200)          1000000

 flatten (Flatten)           (None, 40000)             0

 dense_4 (Dense)             (None, 64)                2560064

 dense_5 (Dense)             (None, 64)                4160

 dense_6 (Dense)             (None, 64)                4160

 dense_7 (Dense)             (None, 2)                 130

=================================================================
Total params: 3,568,514
Trainable params: 3,568,514
Non-trainable params: 0
_________________________________________________________________
Epoch 1/100
4549/4549 [==============================] - 139s 29ms/step - loss: 0.6170 - Accuracy: 0.6540 - precision: 0.6540 - recall: 0.6540 - get_f1: 0.6540 - val_loss: 0.6101 - val_Accuracy: 0.6633 - val_precision: 0.6633 - val_recall: 0.6633 - val_get_f1: 0.6634
…
4549/4549 [==============================] - 134s 29ms/step - loss: 0.4158 - Accuracy: 0.7873 - precision: 0.7873 - recall: 0.7873 - get_f1: 0.7873 - val_loss: 0.9231 - val_Accuracy: 0.6258 - val_precision: 0.6258 - val_recall: 0.6258 - val_get_f1: 0.6258
Epoch 6: early stopping
316/316 [==============================] - 6s 20ms/step - loss: 0.9280 - Accuracy: 0.6271 - precision: 0.6271 - recall: 0.6271 - get_f1: 0.6272
Valid set FFNN MODEL
  Loss: 0.928
  Accuracy: 0.627
1580/1580 [==============================] - 20s 12ms/step
----- END ----
Model: "sequential_2"
_________________________________________________________________
 Layer (type)                Output Shape              Param #
=================================================================
 embedding_3 (Embedding)     (None, 200, 200)          1000000

 lstm (LSTM)                 (None, 200, 128)          168448

 lstm_1 (LSTM)               (None, 200, 128)          131584

 lstm_2 (LSTM)               (None, 200, 64)           49408

 lstm_3 (LSTM)               (None, 32)                12416

 dense_8 (Dense)             (None, 2)                 66

=================================================================
Total params: 1,361,922
Trainable params: 1,361,922
Non-trainable params: 0
_________________________________________________________________
Epoch 1/100
4549/4549 [==============================] - 611s 125ms/step - loss: 0.6140 - Accuracy: 0.6559 - precision: 0.6559 - recall: 0.6559 - get_f1: 0.6559 - val_loss: 0.6026 - val_Accuracy: 0.6691 - val_precision: 0.6691 - val_recall: 0.6691 - val_get_f1: 0.6692
…
4549/4549 [==============================] - 562s 124ms/step - loss: 0.4756 - Accuracy: 0.7649 - precision: 0.7649 - recall: 0.7649 - get_f1: 0.7649 - val_loss: 0.6953 - val_Accuracy: 0.6506 - val_precision: 0.6506 - val_recall: 0.6506 - val_get_f1: 0.6507
Epoch 7: early stopping
158/158 [==============================] - 9s 58ms/step - loss: 0.6887 - Accuracy: 0.6543 - precision: 0.6543 - recall: 0.6543 - get_f1: 0.6543
Valid set LSTM MODEL
  Loss: 0.689
  Accuracy: 0.654
790/790 [==============================] - 49s 54ms/step
----- END ----
Model: "sequential_3"
_________________________________________________________________
 Layer (type)                Output Shape              Param #
=================================================================
 embedding_4 (Embedding)     (None, 200, 200)          1000000

 simple_rnn (SimpleRNN)      (None, 200, 100)          30100

 simple_rnn_1 (SimpleRNN)    (None, 200, 100)          20100

 simple_rnn_2 (SimpleRNN)    (None, 200, 64)           10560

 simple_rnn_3 (SimpleRNN)    (None, 64)                8256

 dense_9 (Dense)             (None, 2)                 130

=================================================================
Total params: 1,069,146
Trainable params: 1,069,146
Non-trainable params: 0
_________________________________________________________________
Epoch 1/100
2275/2275 [==============================] - 1492s 525ms/step - loss: 0.6275 - Accuracy: 0.6409 - precision: 0.6409 - recall: 0.6409 - get_f1: 0.6409 - val_loss: 0.6143 - val_Accuracy: 0.6593 - val_precision: 0.6593 - val_recall: 0.6593 - val_get_f1: 0.6593
…
